LeakDetection/best_model.pth (torch, 107106 bytes, 8 tensors)

localizator.0.bias f4 [16]
0	0xbc7deef0	-0.015498862
1	0xbcb48eca	-0.022040743
2	0x385e9e5e	5.3076415e-05
3	0xbc2f7402	-0.010708811
4	0xbbfdd128	-0.0077458806
5	0xbc2e924c	-0.010654997
6	0x3bcd0c1e	0.006257548
7	0xbb5a523c	-0.0033313176
8	0x3cb89478	0.022531733
9	0xbcc2a342	-0.023759488
10	0x3b0696b5	0.0020536606
11	0xba2c295c	-0.00065674423
12	0xbc963875	-0.018337468
13	0xbc3f7f3c	-0.01168805
14	0xbc512481	-0.012765051
15	0x38f36b84	0.00011607169

localizator.0.parametrizations.weight.original0 f4 [16, 1, 1, 1]
0	0x3f2cd7d0	0.67516804
1	0x3f1b411e	0.60646236
2	0x3f1403e1	0.5781842
3	0x3f1eac86	0.61982
4	0x3f1aa9af	0.60415167
5	0x3f4f11ea	0.8088671
6	0x3f1eb97b	0.6200177
7	0x3f1cd4b7	0.6126208
8	0x3f2e051e	0.6797656
9	0x3f1959c3	0.5990259
10	0x3f15dd99	0.58541256
11	0x3ef16282	0.47145468
12	0x3f27e4de	0.655836
13	0x3f4fffe1	0.81249815
14	0x3f28d6cd	0.6595276
15	0x3f88a52a	1.0675404

localizator.0.parametrizations.weight.original1 f4 [16, 4, 100, 4]
0	0x3c1da8b4	0.0096227415
1	0x3cf7738e	0.030206468
2	0xbca48424	-0.02008254
3	0x3bd88f43	0.006608875
4	0x3c2b63fd	0.010460851
5	0xbb75b6a7	-0.0037492902
6	0x3c8d2784	0.017230757
7	0x3c04fc16	0.008116743
8	0x3bbcb3b3	0.0057587265
9	0x3ca7e7e3	0.020496314
10	0x3cafdf04	0.021468647
11	0x3c00c72c	0.007859986
12	0x3c88b204	0.016686447
13	0x3aafc97e	0.001341149
14	0xbc8d6deb	-0.017264327
15	0x3c3a2e02	0.011363508
16	0xbc79910e	-0.015232338
17	0xbc9ca5cf	-0.019122032
18	0x3b08d66a	0.0020879754
19	0xbca6cb17	-0.020360513
20	0x3c4f2057	0.012641988
21	0x3b76b7ac	0.0037646098
22	0xbcb96dc6	-0.022635352
23	0x3c4b3093	0.012401718
24	0xbc8e8256	-0.017396133
25	0xbc155122	-0.009113582
26	0x3cb7e5dc	0.022448473
27	0x3a234048	0.0006227535
28	0x3be4a10e	0.006977207
29	0xbcc74c81	-0.024328472
30	0x3c821dc6	0.015883338
31	0xbcaf526d	-0.021401608
32	0xbca9d7cc	-0.020732783
33	0x3c5075ae	0.0127233695
34	0x3c777bf6	0.015105238
35	0xbb9e2ad7	-0.0048268843
36	0x3b1450a9	0.0022631085
37	0x3bd3be71	0.0064619114
38	0x3af01180	0.0018315762
39	0x3cda236d	0.02662822
40	0x3b029b0c	0.001992884
41	0xbc147b4a	-0.0090625975
42	0xbb823491	-0.0039735516
43	0x3c01e8dd	0.007929054
44	0x3b62bb6e	0.003459658
45	0x3b271820	0.0025496557
46	0xbba066b1	-0.0048950543
47	0x3cabdd21	0.020979466
48	0x3bd3bfef	0.0064620893
49	0x3c8053c9	0.015664952
50	0x3c40c094	0.011764664
51	0xbc9bddf2	-0.01902673
52	0x3c9dc3ca	0.019258399
53	0xbb7c7b4c	-0.003852564
54	0x3c6aec08	0.014338501
55	0x3b5d46c2	0.0033764099
56	0xbc591ff7	-0.01325225
57	0xb985b192	-0.00025500037
58	0xbc1bf833	-0.0095196245
59	0x3b568674	0.003273395
60	0x3b49f4b2	0.0030816016
61	0x3bd4fd6a	0.006499936
62	0x3c750870	0.014955625
63	0xbcaafa0d	-0.020871187
64	0xbc5166ea	-0.012780884
65	0xbbe8f5b3	-0.0071093678
66	0xbc14c1bb	-0.009079392
67	0xbc1b1738	-0.009465985
68	0x3cace9b1	0.021107526
69	0x3c67c65e	0.0141464155
70	0x3c8d34e0	0.017237127
71	0x3bf06e36	0.007337357
72	0x3c56abcf	0.013102486
73	0x3c701caf	0.014655276
74	0xbc107b51	-0.008818463
75	0x3ce1da10	0.0275698
76	0xbc3d1af0	-0.011542067
77	0xbc900cb1	-0.017584177
78	0x3ba20709	0.0049446863
79	0xbcab1b78	-0.020887122
80	0x3c30e180	0.010795951
81	0xbc8dee06	-0.017325412
82	0x3c5093db	0.012730564
83	0x3abc4d37	0.0014366274
84	0x3c78aef4	0.015178431
85	0xbc97f6ea	-0.018550355
86	0xbc8753d4	-0.016519465
87	0xbc1855d2	-0.009297805
88	0xbc31a27b	-0.010841961
89	0x3a4ea618	0.0007883026
90	0xbca33337	-0.019921882
91	0x3abef9d4	0.0014570304
92	0x3ca89833	0.020580387
93	0x3c1abeb1	0.009444878
94	0xbb01379b	-0.0019716981
95	0xba358e6f	-0.00069258263
96	0x3ca07fdf	0.019592224
97	0x3c387c0f	0.011260047
98	0xbbfc6b7b	-0.0077032424
99	0xbc2d9713	-0.010595101
100	0xbc9b5c84	-0.018965013
101	0x3c830a94	0.015996255
102	0xbcc4fb11	-0.024045499
103	0x3a9eea88	0.0012124339
104	0xbc60d2b6	-0.013722112
105	0xbc0e3acd	-0.008681011
106	0xbc87a7de	-0.016559538
107	0xbcc6e5c7	-0.024279488
108	0x3beac972	0.0071651274
109	0xbcc5c4fb	-0.02414178
110	0xbbf517d7	-0.0074796486
111	0xbc054e83	-0.008136394
112	0xbc421f35	-0.011848261
113	0x3b7449e8	0.0037275497
114	0xbace7e32	-0.0015754162
115	0xbc6434f6	-0.0139286425
116	0xbc9f496b	-0.019444188
117	0x3b3e2404	0.0029013166
118	0x3b575db8	0.0032862257
119	0xbcb34b1b	-0.021886399
120	0x3ca129c0	0.019673228
121	0x3c3d45c9	0.011552283
122	0x3ccf7a0e	0.025326755
123	0xbc7258d1	-0.014791683
124	0x3c477754	0.012174446
125	0x3c095576	0.008382192
126	0xbad8c2cb	-0.0016537545
127	0x3cf1c53b	0.029512992
128	0xbc91f57e	-0.017817255
129	0x3c013972	0.007887231
130	0x3cb4f0cd	0.022087479
131	0xbc8b715b	-0.017021826
132	0x3c0d0c27	0.008608854
133	0xbcbee312	-0.023301635
134	0x3c89985e	0.016796287
135	0xbc988192	-0.018616471
136	0x3c85bfd8	0.01632683
137	0xbb24f338	-0.0025169384
138	0x3ca54324	0.020173617
139	0x3c1f1492	0.009709494
140	0xbc794022	-0.015213044
141	0x3c143f9c	0.009048369
142	0xbc5cb61d	-0.013471154
143	0xbc627136	-0.013820937
144	0xbc315536	-0.0108235385
145	0xbc9004e8	-0.017580464
146	0xbbd4934c	-0.0064872857
147	0xbca25669	-0.019816594
148	0xbc405b04	-0.01174045
149	0x3b1ace25	0.0023621407
150	0x3c99efa1	0.018791022
151	0xbbe3ed8c	-0.006955808
152	0xbbbd33b8	-0.0057739876
153	0x3c072840	0.008249342
154	0xbb4f5580	-0.0031636655
155	0x3aa01521	0.0012213328
156	0x3c236579	0.009972923
157	0x3c061d30	0.00818567
158	0xbb55faea	-0.0032650777
159	0x3cacecce	0.021109011
160	0xbad9f66c	-0.0016629226
161	0xbb5f8ccd	-0.0034111023
162	0x3b192344	0.0023366967
163	0x3bdc01dd	0.0067140893
164	0x3cadab28	0.021199778
165	0x3c86a92c	0.01643809
166	0xbc086e95	-0.008327146
167	0x3c32f8bf	0.0109235635
168	0x3c9fcb6f	0.019506184
169	0xbc00c23c	-0.007858809
170	0x3c5243a3	0.012833509
171	0xbcbf17d2	-0.023326788
172	0xbc31a874	-0.010843385
173	0xb93a2e03	-0.00017755483
174	0xbbd7208c	-0.006565159
175	0xbc9c4eab	-0.01908048
176	0x3be57e58	0.0070035867
177	0xbc27b21d	-0.010235337
178	0xbc9c0aee	-0.01904818
179	0xbca60ff1	-0.020271273
180	0xbcb54f61	-0.022132577
181	0x3c50cbe3	0.012743923
182	0xbb7bd1e1	-0.0038424658
183	0xbc36771b	-0.011136795
184	0xbbb20a2c	-0.0054333415
185	0xbc29d3dd	-0.010365454
186	0xbc3b9b76	-0.011450639
187	0xbc5df00f	-0.013546004
188	0xbc562064	-0.013069246
189	0xbcc59f50	-0.024123818
190	0x3c8b82b5	0.0170301
191	0xbc45ef52	-0.012080984
192	0x3b9e136a	0.0048240917
193	0xbc7888ad	-0.015169305
194	0xbca1e27b	-0.019761315
195	0xbb9fb214	-0.0048735235
196	0xbbfcf4a1	-0.0077195917
197	0xbb8c2659	-0.0042770323
198	0x3c1a24c5	0.009408181
199	0xbacd8b19	-0.0015681713
200	0xbc3cd905	-0.011526351
201	0xbcc23e2e	-0.02371129
202	0x3bc17630	0.0059039816
203	0x3bb45712	0.0055035437
204	0x3c7105b2	0.0147108305
205	0x3cb24cf6	0.021765213
206	0x3c68ca75	0.014208426
207	0xbbc09fbf	-0.005878418
208	0xbca53c66	-0.020170402
209	0x3c7b468b	0.015336643
210	0xbb9631f0	-0.0045835897
211	0xbca3a8fd	-0.01997804
212	0x3caff9fa	0.021481503
213	0x3c298b6d	0.010348183
214	0xbc088d1f	-0.008334427
215	0x3bcf538a	0.0063270973
216	0xbc185177	-0.0092967665
217	0xbc0fab68	-0.008768894
218	0xbc4a43be	-0.012345253
219	0x3b9f8cd0	0.004869081
220	0x3bc99e17	0.006152879
221	0xbcca2a04	-0.024678238
222	0x3c23a921	0.009989054
223	0x3caf5722	0.021403853
224	0x3afe940c	0.0019422784
225	0x3c17cda7	0.00926534
226	0x3cc60f15	0.024177114
227	0xba654430	-0.00087458175
228	0xbc52204f	-0.012825086
229	0x3c90e773	0.017688489
230	0xbbc1169a	-0.005892587
231	0xbbd9d474	-0.006647641
232	0x3c1dd442	0.009633126
233	0xbc1e6842	-0.009668412
234	0x3c165378	0.009175174
235	0xbc536605	-0.012902741
236	0xba9b057a	-0.0011827194
237	0x3c4eee17	0.012630007
238	0x3cab0873	0.020878052
239	0xbbb381bc	-0.005478112
240	0xbcc2cdea	-0.023779828
241	0xbc5bd255	-0.013416846
242	0x3c5a3fe4	0.013320897
243	0x3b0632cd	0.0020477057
244	0xba86656d	-0.0010253616
245	0xbc7caa6d	-0.015421492
246	0xbca87408	-0.02056314
247	0xbca647a9	-0.020297842
248	0x3bad02b7	0.0052798647
249	0x3ca8e9e0	0.020619333
250	0x3c144cdb	0.009051527
251	0x3c530518	0.012879632
252	0xbbecbf28	-0.007224936
253	0xbac5fb00	-0.0015104711
254	0xbaa8f064	-0.0012889025
255	0x3c8b5851	0.017009886

localizator.1.weight f4 [16]
0	0x3f9757f4	1.1823716
1	0x3f964dde	1.1742513
2	0x3f9619e4	1.1726651
3	0x3f9c2914	1.2200036
4	0x3f9c5c88	1.2215738
5	0x3f979378	1.1841879
6	0x3f902d6b	1.126386
7	0x3f9753c6	1.1822441
8	0x3f9d4811	1.2287618
9	0x3f904446	1.1270835
10	0x3f95272b	1.1652578
11	0x3f744355	0.9541524
12	0x3f9309a1	1.1487314
13	0x3f8b1029	1.0864307
14	0x3f91969b	1.1374086
15	0x3f939ed5	1.1532847

localizator.1.bias f4 [16]
0	0x3e399a73	0.18125324
1	0x3e21a409	0.1578523
2	0x3da0a203	0.07843401
3	0x3e561e11	0.20909907
4	0x3e52fa4d	0.20603295
5	0x3df067f5	0.11738578
6	0x3dfe40b0	0.12414682
7	0x3e38af0b	0.18035524
8	0x3e68392d	0.22678061
9	0x3e016d5b	0.12639372
10	0x3dacb5c3	0.08433106
11	0xbd78ad84	-0.060712352
12	0x3e14ef37	0.14544378
13	0x3cf4db8a	0.02988984
14	0x3e0afa98	0.13572156
15	0x3e1168fc	0.14200205

localizator.1.running_mean f4 [16]
0	0x3d0bf6a4	0.03417076
1	0x3cb376ea	0.021907289
2	0x3d41162b	0.04714028
3	0x3f0ffb50	0.5624285
4	0x3c998f16	0.018744987
5	0xbcf42179	-0.029801117
6	0xbf1ba3ec	-0.60797
7	0x3d614f62	0.055007346
8	0xbedb2971	-0.42805055
9	0xbee409a0	-0.44538593
10	0x3d9af45d	0.0756614
11	0x3ba1788a	0.0049276995
12	0xbf098556	-0.5371908
13	0x3da869a4	0.08223274
14	0x3d6459a8	0.055749565
15	0xbe929eed	-0.28636876

localizator.1.running_var f4 [16]
0	0x3f1e82d2	0.61918366
1	0x3e5aa2cb	0.21351163
2	0x3ddf501a	0.1090395
3	0x3df374b5	0.118874945
4	0x3ea0727d	0.31337348
5	0x3aaff1d4	0.0013423511
6	0x3e6d4a19	0.23172797
7	0x3ec070a3	0.37585935
8	0x3eb6591f	0.3561487
9	0x3eaf4501	0.34232333
10	0x3e5cdc17	0.21568333
11	0x395cdb16	0.00021062451
12	0x3ec74f56	0.38927716
13	0x3b107dbc	0.00220476
14	0x3fa76163	1.3076595
15	0x3d2b4284	0.04181148

localizator.4.weight f4 [1, 48]
0	0xbe0eaf08	-0.13933957
1	0x3ddbb69c	0.10728189
2	0xbdf52a3d	-0.11970947
3	0xbe867fca	-0.2626937
4	0x3e03dda1	0.12877513
5	0xbd8aec68	-0.06783372
6	0xbdc2c16b	-0.09509548
7	0x3dabbd1f	0.08385681
8	0x3bf6c0c8	0.0075303055
9	0xbd0c81a9	-0.03430334
10	0xbe1f8b5b	-0.15580504
11	0xbe0d0428	-0.13771117
12	0xbe9cb8ff	-0.3060989
13	0xbd8624c7	-0.065499835
14	0x3ca3de2b	0.020003399
15	0x3d8470e0	0.06466842
16	0xbe2eb278	-0.17060268
17	0x3b6768a8	0.0035310183
18	0xbe717c35	-0.23582537
19	0xbe701ae5	-0.2344776
20	0xbe4c21a1	-0.19934703
21	0xbe14f39a	-0.14546052
22	0x3d4b594a	0.0496457
23	0x3ddb2d08	0.107019484
24	0x3d23b365	0.039966006
25	0xbe047b3c	-0.12937635
26	0xbe0d0101	-0.13769914
27	0xbe807f82	-0.2509728
28	0xbe2431af	-0.16034578
29	0xbddc7a67	-0.10765534
30	0xbe2167d3	-0.15762262
31	0x3dd509fd	0.10402296
32	0xbbe094ff	-0.006853699
33	0x3de3afad	0.11117492
34	0x3ce131a1	0.027489485
35	0xbc43455f	-0.011918395
36	0xbd1d200f	-0.03836065
37	0xbe235d54	-0.1595357
38	0xbe488c2b	-0.1958472
39	0x3d163931	0.036675636
40	0x3da33176	0.07968418
41	0xbe35a2aa	-0.17737833
42	0xbe4322bf	-0.19056223
43	0xbce09fa7	-0.027419878
44	0x3e0d5a75	0.13804038
45	0x3cec8abe	0.028874751
46	0xbdd53348	-0.10410172
47	0xbe782c3e	-0.24235627
