LeakDetection/models/best_localizator.pth (torch, 107190 bytes, 8 tensors)

localizator.0.bias f4 [16]
-0.015500597 -0.022039771 5.253051e-05 -0.010708902 -0.007748772 -0.01100371 0.0062591694 -0.0033309828
0.022533556 -0.023759795 0.0020542738 -0.0006557544 -0.018338889 -0.01165866 -0.0127644595 0.00011235673
00000000: 37f6 7dbc c08c b4bc 3554 5c38 6474 2fbc
00000010: 69e9 fdbb e848 34bc b819 cd3b 9e4c 5abb
00000020: 4b98 b83c e7a3 c2bc ffa0 063b efe6 2bba
00000030: 703b 96bc f703 3fbc 0622 51bc 0fa1 eb38

localizator.0.parametrizations.weight.original0 f4 [16, 1, 1, 1]
0.6777836 0.6069447 0.57877374 0.62112755 0.60477084 0.82622373 0.6209166 0.61342806
0.6826235 0.5993237 0.58575666 0.47041818 0.65779364 0.823208 0.6613868 1.0836241
00000000: 3a83 2d3f ba60 1b3f 842a 143f 3702 1f3f
00000010: 43d2 1a3f 6683 533f 64f4 1e3f 9f09 1d3f
00000020: 6ac0 2e3f 476d 193f 26f4 153f a7da f03e
00000030: 2a65 283f c2bd 523f a550 293f 32b4 8a3f

localizator.0.parametrizations.weight.original1 f4 [16, 4, 100, 4]
0.009711291 0.03048908 -0.020133914 0.0065037687 0.01058257 -0.0036199796 0.017314093 0.008283151
0.0058973604 0.020671483 0.021664165 0.008015675 0.016806224 0.0014749186 -0.017237931 0.011552302
-0.015027456 -0.018912205 0.0021844802 -0.020101609 0.012725395 0.003881482 -0.022479713 0.012504782
-0.017190607 -0.008951043 0.022630755 0.0008735205 0.0071457936 -0.024187736 0.016007563 -0.021185854
-0.021141455 0.012840972 0.0152353505 -0.004722215 0.0023994516 0.0066407984 0.0020358206 0.026859557
0.0021197621 -0.008976395 -0.0038709545 0.008123881 0.0035277305 0.0027235972 -0.0046417643 0.021167904
0.006648541 0.015813915 0.01189524 -0.018855961 0.019368222 -0.0037011015 0.014624501 0.0037280428
-0.013215362 -0.00018874166 -0.009349745 0.003384293 0.003238874 0.006687509 0.01518895 -0.020752281
-0.012630562 -0.0070082075 -0.008941853 -0.009293311 0.021287788 0.014288505 0.017397651 0.0074867513
0.013263196 0.0148198465 -0.008611106 0.027777353 -0.011377522 -0.01740039 0.005153596 -0.020809524
0.010825998 -0.017213766 0.01291198 0.0016376633 0.015276347 -0.01843016 -0.016439829 -0.009162154
-0.010760597 0.0008747389 -0.019704578 0.0016627547 0.020738248 0.009617278 -0.0018572753 -0.00055181346
0.019734832 0.011452526 -0.007506907 -0.010496357 -0.018805508 0.016160933 -0.023959829 0.0013963865
-0.013578744 -0.008535774 -0.016333632 -0.024175348 0.007276653 -0.023918804 -0.007291124 -0.008039878
-0.011712871 0.003864689 -0.0014472225 -0.013781967 -0.019249063 0.0030792549 0.003386548 -0.021784257
0.019820767 0.0117141 0.025504243 -0.014641384 0.012313253 0.008512936 -0.0015392014 0.02958841
-0.01773551 0.00798166 0.022189729 -0.01678286 0.0087483125 -0.023201516 0.016899586 -0.018445155
0.016505942 -0.0023617337 0.02025157 0.009900031 -0.015082314 0.009188758 -0.013290521 -0.01360271
-0.010628502 -0.017402407 -0.006357476 -0.019677019 -0.011568841 0.002531525 0.018910067 -0.0068409033
-0.0055932887 0.008446426 -0.0029612244 0.0013078967 0.010141534 0.008303453 -0.0030930254 0.021327961
-0.0014753502 -0.0032309769 0.0024357147 0.0069003836 0.021372836 0.016637493 -0.008113651 0.011049182
0.019691272 -0.0076862215 0.013035792 -0.023168555 -0.010645664 1.9711992e-05 -0.006537174 -0.018974617
0.0071808775 -0.010106644 -0.018918028 -0.02016979 -0.021956293 0.012923309 -0.003749317 -0.011026288
-0.0052597704 -0.010190484 -0.01128831 -0.013420058 -0.012892828 -0.023896184 0.017160663 -0.011968962
0.004998897 -0.015009251 -0.019681355 -0.0047552055 -0.0075492123 -0.004145125 0.0095245 -0.0014773536
-0.011347456 -0.023559084 0.0061035967 0.00556396 0.01489212 0.021922017 0.014325345 -0.005743145
-0.019989928 0.015497863 -0.004485481 -0.019871952 0.02165939 0.010544856 -0.008110013 0.0064774333
-0.009349176 -0.0087487325 -0.012207584 0.005014626 0.006333537 -0.02453964 0.01024643 0.021565555
0.0020276161 0.009484408 0.024313577 -0.0007084635 -0.012653048 0.017865539 -0.00575871 -0.006531011
0.00981973 -0.009485527 0.009398195 -0.01276397 -0.0010190451 0.012797099 0.02104494 -0.0053496268
-0.023626719 -0.013200395 0.013564649 0.002195152 -0.000865543 -0.015265362 -0.020399328 -0.020215757
0.005434336 0.020757165 0.009216703 0.01300634 -0.007072841 -0.0013243075 -0.001213238 0.01716224
00000000: 1b1c 1f3c 3cc4 f93c e1ef a4bc 911d d53b
00000010: 8462 2d3c 2e3d 6dbb 49d6 8d3c 0eb6 073c
00000020: a53e c13b 3e57 a93c 0c79 b13c 2d54 033c
00000030: 35ad 893c 0e52 c13a 9036 8dbc de45 3d3c
00000040: b835 76bc c5ed 9abc 7f29 0f3b 21ac a4bc
00000050: 2d7e 503c 7660 7e3b 6027 b8bc dbe0 4c3c
00000060: 51d3 8cbc 65a7 12bc 2264 b93c f8fc 643a
00000070: 4327 ea3b 5c25 c6bc 4b22 833c f58d adbc
00000080: d830 adbc f162 523c b19d 793c cfbc 9abb
00000090: 1e40 1d3b 0e9b d93b 676b 053b 9308 dc3c
000000a0: b5eb 0a3b bb11 13bc d7af 7dbb 071a 053c
000000b0: 7f31 673b 617e 323b f119 98bb 5068 ad3c
000000c0: 01dc d93b 2f8c 813c 41e4 423c d177 9abc
000000d0: 1baa 9e3c 2e8e 72bb 9a9b 6f3c 2e52 743b
000000e0: 3f85 58bc f4e8 45b9 ac2f 19bc 04cb 5d3b
000000f0: 4a43 543b e422 db3b 13db 783c b000 aabc
00000100: 6bf0 4ebc 1ba5 e5bb da80 12bc f942 18bc
00000110: ba63 ae3c 551a 6a3c 8585 8e3c 6c53 f53b
00000120: e04d 593c f1ce 723c 9915 0dbc 558d e33c
00000130: c968 3abc 438b 8ebc 7fdf a83b bc78 aabc
00000140: 875f 313c e203 8dbc c58c 533c dda6 d63a
00000150: a549 7a3c d9fa 96bc d2ac 86bc dc1c 16bc
00000160: 374d 30bc bc4e 653a 7f6b a1bc caf0 d93a
00000170: 42e3 a93c ca91 1d3c d16f f3ba 93a7 10ba
00000180: f1aa a13c 60a3 3b3c 80fc f5bb eaf8 2bbc
00000190: 020e 9abc ef63 843c 6747 c4bc f506 b73a
000001a0: 6179 5ebc a2d9 0bbc 1cce 85bc 610b c6bc
000001b0: fd70 ee3b 5ef1 c3bc 62ea eebb b1b9 03bc
000001c0: 57e7 3fbc b946 7d3b bbb0 bdba c2cd 61bc
000001d0: 36b0 9dbc 53cd 493b d9f0 5d3b e674 b2bc
000001e0: 295f a23c 7fec 3f3c 46ee d03c 6ae2 6fbc
000001f0: 87bd 493c d779 0b3c 07bf c9ba 6563 f23c
00000200: 0f4a 91bc 82c5 023c 3cc7 b53c 357c 89bc
00000210: 1555 0f3c 1b11 bebc 0071 8a3c 4b1a 97bc
00000220: 7837 873c 51c7 1abb 9fe6 a53c bd33 223c
00000230: cf1b 77bc 728c 163c 7cc0 59bc e7dd 5ebc
00000240: 2b23 2ebc 7e8f 8ebc 6052 d0bb b331 a1bc
00000250: 3c8b 3dbc f1e7 253b 49e9 9a3c a829 e0bb
00000260: e847 b7bb e162 0a3c 1a11 42bb bb6d ab3a
00000270: ad28 263c 350b 083c 5bb4 4abb fab7 ae3c
00000280: 8a60 c1ba ccbe 53bb 83a0 1f3b 9d1c e23b
00000290: 1616 af3c 5a4b 883c 1eef 04bc a107 353c
000002a0: 974f a13c b3dc fbbb 1394 553c fbcb bdbc
000002b0: 276b 2ebc 2e5b a537 ca35 d6bb a870 9bbc
000002c0: 914d eb3b 5696 25bc fbf9 9abc 1e3b a5bc
000002d0: afdd b3bc 49bc 533c 1ab7 75bb 9ba7 34bc
000002e0: 275a acbb fdf5 26bc 9bf2 38bc cedf 5bbc
000002f0: 713c 53bc eec1 c3bc 8594 8c3c 7719 44bc
00000300: cacd a33b 5de9 75bc cb3a a1bc 8ed1 9bbb
00000310: 625f f7bb d4d3 87bb a60c 1c3c c3a3 c1ba
00000320: aeea 39bc fbfe c0bc ae00 c83b e151 b63b
00000330: 14fe 733c cd95 b33c dab4 6a3c fe30 bcbb
00000340: ebc1 a3bc c0ea 7d3c f1fa 92bb 81ca a2bc
00000350: 086f b13c 55c4 2c3c dcdf 04bc a640 d43b
00000360: 492d 19bc d856 0fbc 5202 48bc bb51 a43b
00000370: 8f89 cf3b 5b07 c9bc a4e0 273c 3faa b03c
00000380: c1e1 043b 7e64 1b3c 442d c73c 2eb8 39ba
00000390: bb4e 4fbc c05a 923c 90b3 bcbb 1702 d6bb
000003a0: efe2 203c 2f69 1bbc e3fa 193c f81f 51bc
000003b0: 7b91 85ba ecaa 513c 7066 ac3c ec4b afbb
000003c0: d28c c1bc 7846 58bc 433e 5e3c 8adc 0f3b
000003d0: 9ce5 62ba 921b 7abc 7e1c a7bc 849b a5bc
000003e0: 8412 b23b ee0a aa3c a701 173c 8b18 553c
000003f0: 4ac3 e7bb 6394 adba 8305 9fba d397 8c3c

localizator.1.weight f4 [16]
1.1880971 1.1792458 1.1830665 1.2274334 1.22754 1.1939843 1.1295823 1.1878985
1.2366322 1.1302528 1.1725034 0.9540771 1.1529511 1.0926038 1.1411066 1.1577666
00000000: 9113 983f 87f1 963f b96e 973f 8a1c 9d3f
00000010: 0820 9d3f 7ad4 983f 2796 903f 0f0d 983f
00000020: f749 9e3f 20ac 903f 9714 963f 663e 743f
00000030: e793 933f 71da 8b3f c80f 923f b231 943f

localizator.1.bias f4 [16]
0.18696336 0.16248372 0.08368772 0.2160298 0.21161455 0.123952 0.12736711 0.18596737
0.23457849 0.12963395 0.0883713 -0.060838327 0.14957859 0.033269405 0.13938099 0.145863
00000000: 5373 3f3e 2262 263e 7864 ab3d ea36 5d3e
00000010: 7cb1 583e 8cda fd3d 866c 023e 3b6e 3e3e
00000020: 5835 703e c3be 043e 03fc b43d 9c31 79bd
00000030: 212b 193e 8045 083d e4b9 0e3e 1c5d 153e

localizator.1.running_mean f4 [16]
0.1273699 0.061213486 0.065863825 0.56781906 0.07232665 -0.35043353 -0.5247928 0.080080904
-0.3104976 -0.40700677 0.11245338 0.004232236 -0.44524497 0.29159787 0.12424451 -0.06389527
00000000: 416d 023e feba 7a3d 9de3 863d 975c 113f
00000010: ff1f 943d 066c b3be d258 06bf 7501 a43d
00000020: 8bf9 9ebe 3163 d0be f54d e63d 92ae 8a3b
00000030: 26f7 e3be 514c 953e e873 fe3d 86db 82bd

localizator.1.running_var f4 [16]
0.6207565 0.21512032 0.111821584 0.11899634 0.31476164 0.0063333814 0.22796722 0.3775375
0.35407987 0.3432138 0.21944663 0.0002064662 0.3825714 0.00923833 1.3003315 0.026729638
00000000: e6e9 1e3f 8048 5c3e b702 e53d 5ab4 f33d
00000010: 7028 a13e 4188 cf3b 3d70 693e 984c c13e
00000020: f549 b53e b8b9 af3e 9eb6 603e d97e 5839
00000030: 66e0 c33e 5d5c 173c 4371 a63f 1df8 da3c

localizator.4.weight f4 [1, 48]
-0.14178532 0.10728189 -0.11970947 -0.26605725 0.12877513 -0.06783372 -0.09805023 0.08385681
0.0075303055 -0.03430334 -0.15886639 -0.14076309 -0.31026974 -0.065499835 0.020003399 0.064099
-0.17442475 0.0026213946 -0.23804834 -0.2370838 -0.20150816 -0.14796408 0.0496457 0.107019484
0.039966006 -0.13226785 -0.14064538 -0.2532925 -0.16296117 -0.11038946 -0.16118209 0.10402296
-0.006853699 0.11117492 0.02615572 -0.013615735 -0.03836065 -0.1620134 -0.19843264 0.0360264
0.0789784 -0.18095593 -0.19286723 -0.027419878 0.13804038 0.028783694 -0.10584532 -0.24540246
00000000: 2c30 11be 9cb6 db3d 3d2a f5bd a838 88be
00000010: a1dd 033e 68ec 8abd 8fce c8bd 1fbd ab3d
00000020: c8c0 f63b a981 0cbd dfad 22be 3324 10be
00000030: addb 9ebe c724 86bd 2bde a33c 5646 833d
00000040: 679c 32be b4cb 2b3b f2c2 73be 18c6 72be
00000050: 2858 4ebe e583 17be 4a59 4b3d 082d db3d
00000060: 65b3 233d 3971 07be 5805 10be 8eaf 81be
00000070: 4bdf 26be df13 e2bd eb0c 25be fd09 d53d
00000080: ff94 e0bb adaf e33d 8544 d63c 8814 5fbc
00000090: 0f20 1dbd d7e6 25be ed31 4bbe 6b90 133d
000000a0: 6dbf a13d 834c 39be fd7e 45be a79f e0bc
000000b0: 755a 0d3e c8cb eb3c 6ec5 d8bd c84a 7bbe
