LeakDetection/models/best_encoder.pth (torch, 7882 bytes, 14 tensors)

encoder.0.bias f4 [16]
0	0xbc175543	-0.009236637
1	0xbbcfd076	-0.006341989
2	0x3caf206e	0.021377768
3	0xbd38c40b	-0.045108836
4	0x3e65fadb	0.22458975
5	0xbeae7a68	-0.34077764
6	0x3cdf45fc	0.02725505
7	0xbea2624d	-0.31715623
8	0x3d8fd028	0.070221245
9	0xbeab6a45	-0.33479515
10	0x3e7f686c	0.24942178
11	0x3ecda1d6	0.40162534
12	0xbda5337f	-0.08066463
13	0xbea4261f	-0.32060334
14	0xbead8e9d	-0.33897868
15	0xbe6bfa44	-0.23044688

encoder.0.parametrizations.weight.original0 f4 [16, 1, 1, 1]
0	0x3f57de69	0.84323746
1	0x3efb73a7	0.49111673
2	0x3f388bb8	0.72088194
3	0x3f0d9cb1	0.5531722
4	0x3f144a69	0.5792604
5	0x3ec9ca0d	0.39411965
6	0x3f33f968	0.7030244
7	0x3f346685	0.7046893
8	0x3edfa947	0.43683836
9	0x3f313edb	0.69236535
10	0x3f154876	0.5831369
11	0x3f281166	0.6565155
12	0x3f1c8112	0.61134446
13	0x3ef5087c	0.47858036
14	0x3eb27133	0.3485199
15	0x3f0e979b	0.5570008

encoder.0.parametrizations.weight.original1 f4 [16, 1, 5, 1]
0	0xbeab1d5b	-0.33420834
1	0x3e7aa641	0.24477483
2	0x3eafa26f	0.34303614
3	0x3e53fa7c	0.20701021
4	0xbeeb2536	-0.45926827
5	0x3e666cd8	0.22502458
6	0x3eaae050	0.33374262
7	0x3e331da3	0.17491774
8	0x3e3a979f	0.18221901
9	0xbd4342a8	-0.04767099
10	0xbee6c77e	-0.45074075
11	0x3ec44430	0.38333273
12	0x3ea7cc72	0.32773167
13	0xbc699157	-0.014255843
14	0x3d02b1ed	0.031907964
15	0x3c054b1b	0.008135582
16	0x3eb41b8e	0.35177273
17	0xbed8972f	-0.42302844
18	0xbe0ba99c	-0.1363892
19	0x3e789263	0.24274592
20	0x3d40a19a	0.047029115
21	0xbef6cb68	-0.48202062
22	0x3ebcec17	0.36898872
23	0xbd96b854	-0.073593765
24	0x3e5d3f4b	0.21606176
25	0xbdec929a	-0.115513995
26	0x3ecf0be1	0.4043875
27	0xbe2e0a89	-0.16996206
28	0xbd644cd2	-0.055737324
29	0xbd2a7075	-0.041611154
30	0x3f02f9ba	0.511623
31	0xbd94dde3	-0.07268884
32	0xbeb5deae	-0.35521454
33	0x3e85e9f9	0.2615507
34	0xbd2cb10d	-0.042161036
35	0x3e0f21e0	0.13977766
36	0x3eb86a3c	0.3601855
37	0x3e02bd20	0.12767458
38	0xbe20ebd1	-0.15714957
39	0xbeea3a5e	-0.45747656
40	0x3e344882	0.17605785
41	0xbe3b44ef	-0.18288015
42	0x3e5459dd	0.20737405
43	0x3dce4294	0.100712925
44	0xbe7d6d08	-0.24748623
45	0x3eb6b2f1	0.35683396
46	0xbdb750cb	-0.08950957
47	0xbed3c643	-0.413622
48	0x3e69dde1	0.22838546
49	0xbe88ff0d	-0.26757088
50	0xbeb01cc9	-0.3439696
51	0xbebdea94	-0.3709303
52	0xbb869efb	-0.0041083074
53	0xbe2c9d1d	-0.16856809
54	0xbeadcec4	-0.33946812
55	0x3ea28f93	0.31750163
56	0xbe460092	-0.19336155
57	0xbd9b9b51	-0.07597984
58	0x3eb37737	0.3505189
59	0xbeb00ebe	-0.34386247
60	0xbecd3d3a	-0.40085775
61	0x3e6122c6	0.21985921
62	0xbd372819	-0.044715974
63	0x3ec5f224	0.386613
64	0x3e8027f6	0.25030488
65	0x3e46f03f	0.19427584
66	0xbc11dcbd	-0.008902726
67	0x3dc095c6	0.09403567
68	0xbe59f5e2	-0.21285203
69	0xbe9ac743	-0.3023015
70	0x3d070569	0.032964144
71	0x3ed16337	0.40896007
72	0xbdfc5e91	-0.123227246
73	0xbe4f78b8	-0.20260894
74	0xbe778fbc	-0.24175924
75	0xbca3973b	-0.019969573
76	0xbe1938ab	-0.14963023
77	0x3ec7c371	0.39016297
78	0xbeb998de	-0.3624944
79	0xbdaaa6ab	-0.08332571

encoder.1.weight f4 [16]
0	0x3f851739	1.0397712
1	0x3f7fa100	0.9985504
2	0x3f807400	1.00354
3	0x3f80ac4b	1.005258
4	0x3f816d64	1.0111508
5	0x3f7c9ec6	0.9867977
6	0x3f7f6931	0.99769884
7	0x3f834a82	1.0257113
8	0x3f7ec9dc	0.9952676
9	0x3f81a59e	1.0128667
10	0x3f7e5c9a	0.9936005
11	0x3f802045	1.0009848
12	0x3f7d86a7	0.9903359
13	0x3f7b9fb3	0.98290557
14	0x3f7a48ea	0.9776751
15	0x3f7de831	0.9918242

encoder.1.bias f4 [16]
0	0xbd3076c0	-0.043082
1	0x3c1f4566	0.009721136
2	0x3c2ff64a	0.010739872
3	0x3c542113	0.012947339
4	0x3d17be92	0.037046976
5	0x3c4717d9	0.012151682
6	0xbd3ae155	-0.04562505
7	0x3d44fd01	0.048092846
8	0x3c8577d2	0.016292486
9	0x3cc32a37	0.02382384
10	0x3d478097	0.048706617
11	0xbc32f27b	-0.01092207
12	0xbca127af	-0.019672243
13	0xbcd931ae	-0.026512947
14	0x3cb89a4f	0.022534518
15	0x3d1a7d38	0.037717074

encoder.1.running_mean f4 [16]
0	0xbc11ea2d	-0.0089059295
1	0x3de0545d	0.10953591
2	0x3d7427d8	0.05960831
3	0xbd249bb5	-0.040187556
4	0x3e6f017b	0.23340409
5	0xbead40a5	-0.33838382
6	0x3d8b3361	0.06796909
7	0xbea13e2a	-0.3149274
8	0x3d9eeeb6	0.07760374
9	0xbeb85457	-0.36001846
10	0x3dd24ec6	0.10268931
11	0x3ed194de	0.4093389
12	0xbcfcab6d	-0.030843461
13	0xbeb58262	-0.35451037
14	0xbeb2f9bb	-0.34956154
15	0xbe84cd71	-0.2593799

encoder.1.running_var f4 [16]
0	0x398f4a92	0.00027330645
1	0x3f049615	0.51791507
2	0x3d697948	0.05700043
3	0x3a98314d	0.0011611372
4	0x3b56fbbb	0.0032803852
5	0x39ad76ec	0.00033085735
6	0x3d832b5f	0.06404757
7	0x3a6a38c8	0.00089348527
8	0x3b0853c4	0.0020801881
9	0x3cce2458	0.025163814
10	0x3f54fd80	0.8319931
11	0x3b1bd4b9	0.0023777916
12	0x3dc6fd42	0.09716274
13	0x3d396bc8	0.045268804
14	0x3b94b932	0.0045386786
15	0x3d05aaff	0.032633778

encoder.3.bias f4 [4]
0	0x3d5adc35	0.053432662
1	0x3d91959b	0.07108613
2	0xbd9d411c	-0.07678434
3	0xbc1d177f	-0.009588121

encoder.3.parametrizations.weight.original0 f4 [4, 1, 1, 1]
0	0x3efdfe53	0.49608096
1	0x3f0fec30	0.5621977
2	0x3f1acf9f	0.60473055
3	0x3f25fac6	0.64835775

encoder.3.parametrizations.weight.original1 f4 [4, 16, 5, 1]
0	0x3d5085f3	0.050908994
1	0x3c8da305	0.017289648
2	0x3d36ba9a	0.04461155
3	0xbcd2a19e	-0.02571183
4	0x3e03e46f	0.12880109
5	0x3dfa1c8f	0.12212478
6	0xbd5fbc50	-0.05462295
7	0x3c5c4fe8	0.0134467855
8	0xbd437f89	-0.04772905
9	0x3d82fe5a	0.0639617
10	0x3d8ad98d	0.06779776
11	0xbd178da9	-0.037000332
12	0xbc683bb5	-0.0141743915
13	0x3e0486b9	0.12942018
14	0x3de43757	0.11143368
15	0x3d224217	0.03961381
16	0x3d99b430	0.07505071
17	0x3e078190	0.13233018
18	0x3d377b3e	0.044795267
19	0x3de2c689	0.11073024
20	0x3da580e0	0.080812216
21	0x3df9fe2e	0.12206684
22	0x3d30e1ab	0.043183964
23	0x3dbd09da	0.09230395
24	0x3da1a8e0	0.078935385
25	0x3a86c721	0.0010282734
26	0xbcc61b4e	-0.024182942
27	0x3d8b14f2	0.067911044
28	0xbc98a957	-0.018635435
29	0xbd10e24f	-0.035372075
30	0x3d0fc219	0.035097215
31	0x3d1a84c1	0.03772426
32	0x3d6b5683	0.05745555
33	0x3c819b43	0.015821105
34	0x3b61c54c	0.0034449873
35	0x3dabb541	0.08384181
36	0x3d5254b5	0.051350314
37	0xbd75690e	-0.05991464
38	0x3d3f3175	0.046678025
39	0x3d873081	0.06601048
40	0xbd1acb8c	-0.037791774
41	0x3d1af14f	0.037827786
42	0xbcd42645	-0.025897155
43	0x3e105675	0.1409548
44	0x3d88b153	0.06674447
45	0xbde3a633	-0.11115684
46	0x3d821ed7	0.063535385
47	0x3d0d744b	0.034534734
48	0x3cf9721a	0.030449916
49	0x3c40f6fa	0.011777634
50	0x3d754490	0.05987984
51	0x3da765b8	0.08173698
52	0xbc96e516	-0.018419784
53	0xbbcf05be	-0.006317823
54	0xbdc5e8a5	-0.09663514
55	0x3d5e1873	0.054222535
56	0x3e0c5b79	0.13706769
57	0xbc5a8001	-0.013336183
58	0x3d6dc8d2	0.058052845
59	0x3d38f4bb	0.04515527
60	0x3d949aa8	0.07256061
61	0xbd3f1572	-0.04665131
62	0xbd3a6248	-0.045503885
63	0x3d0433d0	0.032275975
64	0xbcd9d023	-0.026588505
65	0x3da202e3	0.07910707
66	0xbcaf185e	-0.021373924
67	0x3d45d2c3	0.0482967
68	0x3daedec0	0.0853858
69	0x3ccd59e6	0.025067281
70	0xbd1c9663	-0.038229357
71	0xbc3debe3	-0.011591884
72	0x3d7c28dc	0.061562404
73	0x3d777760	0.06041658
74	0x3d07b4bf	0.033131357
75	0xbd9fa0de	-0.07794355
76	0x3d865068	0.06558305
77	0x3cb322d8	0.0218672
78	0x3db0b6ff	0.08628654
79	0xbd444266	-0.047914885
80	0x3dfcedd9	0.12350053
81	0x392550cc	0.00015765725
82	0xbd36170b	-0.04445557
83	0x3d8a275d	0.06745789
84	0x3d81a8ec	0.063310474
85	0xbc8eaed3	-0.017417347
86	0x3aaa8946	0.0013010881
87	0x3d2e785c	0.042595252
88	0xbccd6dfa	-0.025076855
89	0x3d812800	0.063064575
90	0x3cb5148f	0.02210453
91	0xbbd5324b	-0.0065062395
92	0xbdad1f28	-0.08453208
93	0x3dbea1d0	0.09308207
94	0x3cdbfe2f	0.026854603
95	0x3c91e1c4	0.017807849
96	0xbd8eeed5	-0.06979147
97	0xbc4af3a4	-0.01238719
98	0xbca4f710	-0.02013734
99	0xbc964277	-0.01834224
100	0xbd27062d	-0.040777374
101	0x3dbd699a	0.092486575
102	0xbd9d4ce3	-0.076806806
103	0xbd4f2aa4	-0.050577775
104	0xbd6f6dff	-0.05845451
105	0x3ded087e	0.115738854
106	0xbd6c58a0	-0.057701707
107	0xbd34a9fb	-0.04410742
108	0xbd57dd7d	-0.052701462
109	0xbd8b398a	-0.06798084
110	0xbc1dddb2	-0.009635376
111	0x3d28cf2c	0.0412132
112	0x3d501379	0.05079982
113	0xbac0b76c	-0.0014703101
114	0x3cae124c	0.021248959
115	0xbd785a5b	-0.060633045
116	0x3da4ab45	0.080404796
117	0x3d999841	0.07499743
118	0x3cc83682	0.024440054
119	0x3d81a3d2	0.06330074
120	0xbd9b275d	-0.07575867
121	0xbce2d105	-0.027687559
122	0x3d0c4714	0.034247473
123	0xbd93e106	-0.07220654
124	0x3d872da3	0.066005014
125	0xbdf24c73	-0.11830988
126	0x3c877dda	0.016539503
127	0xbcc37212	-0.023858104
128	0x3c03324b	0.008007596
129	0x3b1fe269	0.0024396426
130	0xbb822609	-0.0039718193
131	0x3dd3fe24	0.10351208
132	0xbcc94481	-0.024568798
133	0x3d263c5e	0.040584914
134	0xbd0606b2	-0.03272123
135	0xbcc19d2a	-0.023634512
136	0x3dc652ce	0.096837625
137	0x3daa8bb7	0.0832743
138	0xbd0ce77a	-0.03440044
139	0xbd2b4162	-0.0418104
140	0xbd96662e	-0.07343708
141	0x3d933583	0.07187941
142	0xbb1860e5	-0.0023251113
143	0xbd125f7e	-0.0357356
144	0xbca85a54	-0.020550884
145	0xbde4a375	-0.111639895
146	0xbdad8d10	-0.08474171
147	0x3dcee21d	0.101017214
148	0x3d60424c	0.054750726
149	0xbd41ce2b	-0.047315758
150	0x3aa1d21b	0.0012345942
151	0xbdcb2ede	-0.099210486
152	0xbc71828d	-0.014740598
153	0x3d9f26e6	0.07771091
154	0x3d61215a	0.054963447
155	0xbc8fdd75	-0.017561654
156	0x3dc58db9	0.09646172
157	0xbd38e399	-0.04513893
158	0xbcb8907f	-0.022529839
159	0x3da2c5f6	0.07947914
160	0x3c86561e	0.016398486
161	0x3ce84bb5	0.028356412
162	0xbbb583d0	-0.005539395
163	0xbb7772fd	-0.0037757747
164	0x3b53b34e	0.003230292
165	0x3c20dbf2	0.009818064
166	0x3dda8192	0.10669245
167	0xbcd42140	-0.025894761
168	0x3c216ed3	0.009853083
169	0x3d9fb5f7	0.07798379
170	0x3dc20d20	0.0947516
171	0x3da8225c	0.082096785
172	0xbdb0cf9c	-0.08633348
173	0x3d5b75c3	0.053579103
174	0x3dd7e909	0.10542495
175	0x3d84b929	0.06480629
176	0xbd8d6fca	-0.06906088
177	0xbdb56f8e	-0.08859168
178	0xbcc63b29	-0.024198132
179	0x3de97399	0.11399002
180	0xbda83cac	-0.08214697
181	0x3d346320	0.044039845
182	0x3cc7226f	0.024308411
183	0x3df6a43f	0.12043046
184	0x3dcb80fc	0.09936711
185	0xbc9a633e	-0.01884615
186	0x3d34ddb5	0.04415675
187	0x3d4dcf95	0.050246794
188	0x3d076647	0.033056524
189	0xbd6e5884	-0.058189884
190	0xbbe95592	-0.0071207965
191	0xbdcece6f	-0.10097968
192	0x3dc7c805	0.097549476
193	0x3c40b87e	0.011762736
194	0xbd8c157e	-0.06840037
195	0xbc6cf4eb	-0.01446269
196	0xbcb1bda7	-0.021696879
197	0x3c8f65c2	0.017504577
198	0x3d16eba7	0.03684583
199	0x3cc6cf15	0.024268666
200	0x3dca35dc	0.09873554
201	0xbddf653b	-0.1090798
202	0x3db1fdc4	0.0869098
203	0xbc9f1e2e	-0.01942357
204	0x3cc604f3	0.024172282
205	0xbbdc0a64	-0.006715106
206	0xbd9c7e42	-0.07641269
207	0xbe052259	-0.13001384
208	0xbdfafccf	-0.12255251
209	0x3c48cbdc	0.012255635
210	0xbd20919f	-0.039201375
211	0xbcf388ad	-0.029728258
212	0xbe042d6b	-0.1290795
213	0xbcf4b728	-0.029872492
214	0xbd83c086	-0.06433205
215	0x3dc15029	0.094391175
216	0x3d8a17e3	0.06742837
217	0xbd7ffd5a	-0.062497474
218	0xbda32000	-0.07965088
219	0x3de09cb9	0.109673925
220	0xbc8f908f	-0.017524986
221	0xbcfde7c3	-0.030994302
222	0xbdaf7083	-0.08566382
223	0x3d19a9f5	0.0375156
224	0xbd55bdb6	-0.052182876
225	0x3d00dbff	0.031459805
226	0x3d8962f9	0.06708331
227	0xbdb177ac	-0.08665404
228	0xbd63505b	-0.055496555
229	0x3d14f548	0.03636673
230	0xbd925298	-0.0714466
231	0xbd9c37fc	-0.07627866
232	0xbb4f4170	-0.0031624697
233	0x3a9ba30f	0.0011874157
234	0xbdd0dbbe	-0.101981625
235	0x3c63c9cb	0.013903092
236	0xbd7f92fa	-0.062396027
237	0x3c073624	0.008252654
238	0x3c88f475	0.016718129
239	0xbd96e8f0	-0.07368648
240	0x3cdac92e	0.026707258
241	0x3db3e2e3	0.087835096
242	0xbc1b121c	-0.009464767
243	0xbde18f89	-0.11013705
244	0x3d014c77	0.031567063
245	0xbd90aa1d	-0.070636965
246	0xbdc8985a	-0.09794684
247	0xbd51e5c5	-0.051244516
248	0x3d2c3b58	0.042048782
249	0xbc43d5d3	-0.011952835
250	0x39cf4601	0.00039534274
251	0x3d84bc58	0.06481236
252	0xbce52a6b	-0.027974328
253	0x3cfc99f5	0.030835131
254	0x3d843562	0.064554945
255	0xbddc1b7c	-0.1074743

encoder.4.weight f4 [4]
0	0x3f6d66c0	0.9273491
1	0x3f81bff5	1.0136706
2	0x3f81a584	1.0128636
3	0x3f8907e6	1.0705535

encoder.4.bias f4 [4]
0	0xbdf64252	-0.12024368
1	0xbda25211	-0.07925809
2	0x3d9d9a9b	0.07695504
3	0xbcfff35c	-0.031243972

encoder.4.running_mean f4 [4]
0	0x3f6378ac	0.88856006
1	0x3e022af7	0.12711702
2	0xbe3037cf	-0.1720879
3	0xbe49acad	-0.19694777

encoder.4.running_var f4 [4]
0	0x3f1c364b	0.61020344
1	0x3cc854d3	0.02445451
2	0x3f4b68e3	0.7945692
3	0x3d28f983	0.041253578
